circle_detection_cnn_wts.pth (torch, 604342 bytes, 30 tensors)

ConvBlock1.0.weight f4 [32, 1, 5, 5]
00000000: 102a 413f 5e5d 12bd 0342 80bd 76d3 32bd
00000010: e1e9 e23c c1a2 a63f 30d0 ac3e 6d41 1fbe
00000020: 6f4a 03be 93d9 d83c d463 213d 12e6 823f
00000030: e08d df3d 6d27 04be 56bc 413d b189 31be
00000040: 4c1a 563e 0408 2b3f e452 dfbd c70d 90be
00000050: 50b8 cbbd 6273 c03d b7db 683e 43c2 603e
00000060: 99fc 273e 09fb 53be 49cb 8abe 1a11 853f
00000070: 83e3 353e 5597 07bd 60b8 d03c 45bd e0be
00000080: 6424 ab3f d21e c8be f581 2ebe 2b90 0dbe
00000090: 8dec 49bc f16b 473f 64d1 f4bd c3e2 14bd
000000a0: e77f 55be b127 f2bd 6c33 833e 4c47 173e
000000b0: 38bc 88be 8ad5 1ebe 32d2 b33e 73f3 d23d
000000c0: b9a4 f23c e1ca 83be 3df4 4bbe 3009 4abe
000000d0: 1744 efbe 611a 8cbd 37a4 fe3d 1a9f 41be
000000e0: 2e73 66bb f1d4 033e 1c62 cabe aaf3 623e
000000f0: bb7b 60be d0f2 26be ff3b a0bd b71d 23be
00000100: b900 11bd ab49 bfbe 48d2 b7be 6960 163d
00000110: 8ae8 2abe 9a95 923f bb32 3dbd b929 4cbd
00000120: ed3a 20be 7166 db3e 88be aa3f 3493 9dbd
00000130: f002 bc3e 02d4 90be f010 d7bd ff85 1bbe
00000140: 136c 8a3e d1e8 fc3c 9277 a6be 5efd 933d
00000150: ba22 aabd 03bb c93e 0198 463e 3b9a 0fbf
00000160: 1203 dd3c 1ed0 52be 13c4 513f a866 53be
00000170: c07e 09be 7253 0bbf 9e70 98be 9eae ce3f
00000180: 5748 d43c 51bb 82bd 244c 4c3e fb9c 66be
00000190: 51ca 353e 572a 9c3f ce9a 1c3e c2a8 91bb
000001a0: 2d33 43be 5241 42be 47e3 523f a41b f3be
000001b0: 4ed4 72be c7c1 01be 4fd6 81be 2645 573f
000001c0: f53e 0a3d 2d20 c5bd cbfd f03a 4d62 76bd
000001d0: 3876 833f f19c 80be 5f66 7ebe 2aeb 33be
000001e0: feb3 32be eed8 113f 4749 52bd b374 37be
000001f0: 36f5 62be 1a48 6ebe d18d e53d d78a bdbe
00000200: cc63 bcbe 8406 5abd a8a0 203e f371 abbe
00000210: bb09 80be 2e17 f6bd 32db 36be 77fb 703f
00000220: 4abe 0b3f b566 3c3f c391 153f a32a 3e3f
00000230: 8ed8 07be 5bf3 58be d667 1fbe 20a4 50be
00000240: 0e76 d8be 0400 6bbe df13 3bbe cb7d b8be
00000250: 0aa2 043e 0b7c 8bbe 9ae1 b13c d8b7 24bd
00000260: fa10 cabd 424b c33e 51ea 6d3f 04bd 3a3c
00000270: 2e39 2cbd f7dd 04be 06e3 6c3f f748 b93e
00000280: 4637 5cbe d693 5b3e 3628 393f fbf6 82bd
00000290: f529 7bbe e3be f33e b84e 5a3f 2d1b 03be
000002a0: c4b8 c8be 0d03 59be 1233 eb3e 95fe 163e
000002b0: 6c56 48bb c45a fcbd 03d3 87be e7d8 fe3e
000002c0: 5253 8f3d 64c6 04bc 2aa0 5abe dec5 0fbe
000002d0: 3811 ef3e 380e 253f 7246 13bf bdfd 74be
000002e0: 3767 e63d 71a3 6fbe 943a 243e 6dd1 823f
000002f0: f563 0bbe 5770 49bd 803f 45be ded4 f9bd
00000300: 819e 563d df82 843f cd19 893e cab4 88be
00000310: 85e1 34bc f6e6 9bbd 06d6 193d 01ab 4b3f
00000320: dc0b 78be 8b01 0fbd 6764 66be 0362 afbd
00000330: ad39 febd fe66 023e 2862 98be 17f3 44be
00000340: d12b 22be 8a97 4fbe db54 5dbe 2f9c 04be
00000350: 4c7d 51be e0c4 c43c 8bd0 603f a296 12be
00000360: da0c 243e 953a 5c3f a2a7 7a3f 80e6 da3e
00000370: 8cea 073f 2d00 733f e9f8 9e3c 820c 69be
00000380: 51b1 84be e546 bebc 654f 87be 8668 81bd
00000390: 72e6 ecbc a423 75be b0d9 c73e 608b dfbc
000003a0: 3075 57be 2cf4 b5bd 369f b0bd 6c93 403f
000003b0: 7b72 703f 7239 a73d e0b7 25be a030 49be
000003c0: 9da5 9dbe 4826 7bbd e89e 3c3f 6029 9c3f
000003d0: 2fe6 bf3e e012 c2bd 2d18 5bbc 7903 07be
000003e0: b962 ad3d ae1f 473f 0bc1 db3e ca94 19be
000003f0: bb2b b63e f4ad 02bb 5e92 d23d 38cb 653e
0.7545481 -0.035733573 -0.06262591 -0.043658696 0.027699413 1.3018419 0.33752584 -0.15552302
-0.12821363 0.026470935 0.039401844 1.0226462 0.109157324 -0.12905665 0.04729875 -0.17337681
0.20908469 0.66809106 -0.10904482 -0.2813551 -0.09947264 0.093970075 0.22740065 0.21949105
0.16404952 -0.20701231 -0.2710822 1.0395844 0.1776257 -0.033103306 0.025478542 -0.438944
1.337048 -0.39086014 -0.17041762 -0.13824527 -0.0123244645 0.7789908 -0.119540006 -0.03634907
-0.20849572 -0.11823977 0.2562517 0.14773291 -0.267061 -0.15511146 0.35121304 0.103003405
0.029619562 -0.25740722 -0.19917388 -0.19730067 -0.46731636 -0.06840969 0.12433665 -0.18908349
-0.0035163867 0.128742 -0.39527977 0.22163263 -0.219222 -0.16303563 -0.07823943 -0.15929304
-0.03540108 -0.37360892 -0.3590262 0.036713038 -0.16690269 1.1451905 -0.04619096 -0.049844477
-0.15647478 0.42851594 1.3339396 -0.076940924 0.3672099 -0.2828675 -0.105012774 -0.15187834
0.2703558 0.030872734 -0.325131 0.0722606 -0.08307405 0.3940049 0.19393922 -0.5609471
0.026979003 -0.20587203 0.8193981 -0.20644629 -0.13427258 -0.544242 -0.2977342 1.6147039
0.0259134 -0.06383384 0.1995092 -0.22520821 0.17752959 1.2200421 0.15293428 -0.0044451663
-0.19062491 -0.1897023 0.8237805 -0.47482026 -0.237138 -0.12671576 -0.25358817 0.8408989
0.033751447 -0.09625278 0.0018386183 -0.06015234 1.0270452 -0.25119737 -0.24843739 -0.17570177
-0.17451474 0.56971633 -0.051339414 -0.17915611 -0.22163853 -0.23269692 0.1120869 -0.3701999
-0.3679489 -0.05322887 0.15686285 -0.33485374 -0.25007424 -0.1201614 -0.17857054 0.94133705
0.54587233 0.7359422 0.5842554 0.7428381 -0.13266203 -0.21186583 -0.15566954 -0.20375109
-0.4227757 -0.22949225 -0.18269299 -0.36033472 0.12952438 -0.27243075 0.02171402 -0.04021439
-0.09866519 0.38143355 0.92935663 0.011397604 -0.04204672 -0.12975298 0.9253391 0.3618848
-0.2150546 0.21443114 0.7232698 -0.06394764 -0.24527724 0.47606573 0.85276365 -0.12803335
-0.39203465 -0.2119257 0.459374 0.14745553 -0.003056909 -0.12322 -0.26528177 0.49774858
0.06998314 -0.008103941 -0.2135016 -0.14040324 0.46692824 0.6447482 -0.57529366 -0.23924918
0.112501554 -0.23402192 0.16037971 1.0220162 -0.1361235 -0.0491794 -0.19262505 -0.12198804
0.052397255 1.0352439 0.26777497 -0.2670043 -0.011040096 -0.07612412 0.037557624 0.79557806
-0.24223274 -0.03491358 -0.22499238 -0.08563616 -0.124133445 0.12734601 -0.29762387 -0.19233356
-0.15837027 -0.20272651 -0.21614401 -0.12950204 -0.20457953 0.024019659 0.8781821 -0.14315274
0.16020527 0.8602689 0.9791204 0.42753983 0.53092265 0.94922143 0.019405799 -0.22758678
-0.25916532 -0.023227165 -0.2642776 -0.063187644 -0.028918479 -0.23939377 0.3903327 -0.027288139
-0.21040797 -0.08884463 -0.08624117 0.7522495 0.93924683 0.08165254 -0.16183424 -0.19647455
-0.30790415 -0.061315805 0.7367997 1.2200127 0.37480304 -0.09476256 -0.013372463 -0.13184918
0.084660955 0.77782714 0.42920718 -0.14998165 0.3558024 -0.001994011 0.102818236 0.22440803

ConvBlock1.0.bias f4 [32]
00000000: 2d83 29be 305d d73b 1ad6 30be cb00 3c3e
00000010: 9923 053e c5c9 21be 8aca 1ebe 482d 463e
00000020: affd 3ebe e48a 243e e1e8 263e 3b12 473e
00000030: 6c0a 2d3e b2ae 173c 803d eabd cc39 473e
00000040: a0de 25be aeed ddbd 1969 ab3d 656b 073e
00000050: e29e ccbc e264 093e 2185 3cbd 18a0 cfbd
00000060: 1c48 40be c647 3f3e ddf0 853d 8fac 993d
00000070: 79ac acbd 9b86 8ebd 5022 9dbd 78ed a83c
-0.16553946 0.006572388 -0.17269173 0.18359677 0.1300186 -0.15799625 -0.1550695 0.19353211
-0.1865146 0.16068608 0.16299774 0.19440548 0.16898507 0.009257959 -0.114375114 0.19455642
-0.16198206 -0.108363494 0.08369655 0.13224562 -0.024978105 0.1341739 -0.0460254 -0.10137957
-0.18777508 0.18679723 0.06540082 0.07503616 -0.08431334 -0.06959268 -0.0767256 0.020621046

ConvBlock1.1.weight f4 [32]
00000000: 2da3 503f 6c23 573f 6aac 263f 5f8d 003f
00000010: 60f0 6d3f 191b 013f 854b 363f 089a 533f
00000020: b459 693f e7eb 883f ecd7 d83d 1817 193f
00000030: 6d9a 7c3f 6d73 5c3f 0e1b 7a3f a426 383f
00000040: ad7c 6a3f d3da de3e 9f11 1f3f c905 8c3f
00000050: 9a33 3a3f b817 d93e 9735 383f 4581 333f
00000060: 0787 403f 04b1 0a3d 0cc4 a73e 391d bf3e
00000070: 1ba2 0e3f 431c 333f 290c 473f b63c 843e
0.81498986 0.84038424 0.65106833 0.50215715 0.9294491 0.5043197 0.71208984 0.8265691
0.911525 1.0696992 0.10588059 0.59800863 0.98673135 0.86113626 0.9769753 0.7193396
0.9159649 0.43526325 0.6213626 1.0939265 0.7273499 0.42400908 0.7195677 0.70119125
0.75206035 0.03386022 0.3276676 0.37326983 0.55716103 0.69965 0.7775293 0.2582757

ConvBlock1.1.bias f4 [32]
00000000: 20e2 5ebf 6f4b acbf 00f3 4ebf 40b0 3fbf
00000010: 40d2 b0bf a22b 45bf 9316 8cbf 4911 b0bf
00000020: 60e9 b8bf 54c6 e4bf ff2f 56bf 7b7b 80bf
00000030: a430 b8bf bb21 8ebf d36d bebf a625 9bbf
00000040: bc47 b2bf e5e7 c03e 5f2e 6bbf a22f e5bf
00000050: dafb 98bf 2d22 49bf 477a 8bbf 0bca 96bf
00000060: 44cd 0fbf db84 c7be f0be f4be 8ed6 143d
00000070: 6bd6 55bf 9f94 8dbf ecfd b1bf e78b 42be
-0.8706379 -1.346052 -0.8083954 -0.7487831 -1.3814163 -0.77019703 -1.0944389 -1.3755275
-1.444622 -1.7873025 -0.83666986 -1.0037683 -1.4389844 -1.1104044 -1.4877266 -1.2120864
-1.3928142 0.3767692 -0.9186763 -1.7905161 -1.1951859 -0.78567773 -1.0896691 -1.1780409
-0.56172585 -0.38968548 -0.47801924 0.036337428 -0.835303 -1.106098 -1.3905616 -0.18998681

ConvBlock1.1.running_mean f4 [32]
00000000: 6043 f23f 69c1 3b3f 0ded 00be c539 123f
00000010: 8af5 8d3f 799c 65be 97d1 d33f 87e1 d53f
00000020: da78 713f 4aa7 ef3f 5f06 ff3e fc40 0c40
00000030: 0d4d d33f 9878 3740 27ae d73f 1b20 6c3f
00000040: 4296 6f3f c12a 8cc0 9f0f 3f3f 7b2d 0840
00000050: d6ec cd3f 57c9 803f 7a6d a43f 1837 b43f
00000060: 1250 3940 da44 99bf 4e40 133f 7c5d 16c0
00000070: 4252 d13f b97e 933f 8209 ba3f 9430 0240
1.8926811 0.73341995 -0.12590428 0.571194 1.1090558 -0.22422971 1.6548337 1.670945
0.9432503 1.8722928 0.49809548 2.1914663 1.6507889 2.8667355 1.6850022 0.9223649
0.9358865 -4.380219 0.7463321 2.127776 1.6087902 1.0061444 1.284591 1.4079313
2.895512 -1.1974137 0.57519996 -2.3494558 1.6353228 1.1523048 1.4534152 2.034215

ConvBlock1.1.running_var f4 [32]
00000000: e89a 8f3f fec9 933f 5294 8e3f 8dec 9f3f
00000010: e25d a73f a1ca 7b3f f938 8c3f 3fd3 913f
00000020: f320 943f 811e 9f3f f186 c53e f232 933f
00000030: bce6 953f 21b9 8d3f 01fa 9e3f f130 843f
00000040: 6854 8b3f fc64 8c3f e34a 893f 87d4 a13f
00000050: e4f2 823f 6ca5 7c3f e6ad 883f b925 983f
00000060: d9a2 943f 45cb 563f defe 833f 27ee 8e3f
00000070: 45b9 8b3f d49a 8c3f 67ac 893f 361d 853f
1.1219149 1.1546018 1.1139014 1.2494065 1.3075526 0.9835606 1.0954887 1.1392592
1.1572555 1.2431184 0.38579515 1.1499922 1.171104 1.1072122 1.2420045 1.0327436
1.0885134 1.0968318 1.0725979 1.2642983 1.0230374 0.98689914 1.067807 1.1886512
1.1612197 0.83903915 1.0312154 1.1166428 1.0915915 1.098475 1.0755738 1.039954

ConvBlock2.0.weight f4 [64, 32, 3, 3]
00000000: 24b3 52bf e96f 53be 061d b7bc 1f07 4fbe
00000010: f806 713e 218f 913d 88a6 48bf f057 8cbe
00000020: 908d efbe 9c08 f2be 2a49 913d 57b6 91be
00000030: cce1 09be 3757 95be 1aad 813e e739 52be
00000040: e235 79be d3d0 9f3d 999a 8abd c15d 0e3e
00000050: e855 c63d e9e8 d33e 81e4 bb3e 3dc2 4a3f
00000060: f9e8 ad3d 9cb7 c8be 6412 d2be 6dd7 22bf
00000070: 9004 22bd c811 8cbe 7cbf ae3d b6a2 a9be
00000080: 95c9 6cbe 0e95 763d 17a6 5fbe b1ea b63e
00000090: 199a 95be 11e0 ef39 43b6 05bf 29d5 733e
000000a0: 17d8 94bd 92ce 093a a976 163d b9e3 443d
000000b0: 0bae a6bd 8b27 15bd 8286 073e 40af a6be
000000c0: e687 08bf c396 8ebe baf9 913e c2d4 3abd
000000d0: dc61 1f3f b02b 733f 59c5 babe 05ec 82be
000000e0: 6a1f 9c3e c9b7 543e 53cd 2f3f 9b83 633d
000000f0: 6438 bebe 40d1 06be a048 823d a6e2 27be
00000100: 07a9 e9be 2dc8 90be 74ec 113f a287 9d3e
00000110: dac1 9abd ae72 a8be e6f8 cfbd d81a d8be
00000120: f690 2bbe a62e 8d3e 47c2 113f 0125 063e
00000130: cd1a 383e db13 663e 83d2 86bf 7d66 f9be
00000140: 8dcf e2bd 9e2c 36bf 7b54 753c 1373 98be
00000150: 2820 21be 56d9 893e 4ebf a73e 61a3 d13c
00000160: 7add ec3d c081 6cbd 4334 12be 8911 ee3d
00000170: 5bc0 65bd edfb 693e 05fe 953d 45d5 91bd
00000180: 76eb 95bd 5ca6 6fbe 494e 323d 539d 213e
00000190: a8ef 1dbe c1ff 58be 7458 dbbd be60 873e
000001a0: 73cb 723d e272 b5be 8391 06bf 7ac1 a4bc
000001b0: a66d e1be fbc7 f4bd c8ac 6ebd 651c c53d
000001c0: 1d11 9a3e f53d d13e 5714 05be 9ade b6bd
000001d0: 74d6 0d3f ad46 36bf a519 c53e 9d6b 983d
000001e0: f605 23bf 5801 133f 890b 0fbd 1e41 acbf
000001f0: ad7e 0ebf dc84 323e e920 5fbe 098b a43e
00000200: f0a2 6c3e 5350 0dbf e80a 943e cee9 733f
00000210: 0ff5 13be 6ff3 4cbe 5076 a33e 1f94 d0be
00000220: c198 b9be 40d8 2abf 0d49 edbe 970d b93e
00000230: 8a9d 0abd fc7e 26bf b6b5 b43e bc7c aa3e
00000240: 7de2 42bf 5b7e 093f 6678 713e 6fd5 9bbf
00000250: 103a 063f db2b a63e a074 93be 0011 2f3c
00000260: 888f 3fbe 4ad0 17be 86b8 98bc ba7f edbe
00000270: bdba 8c3e 2c10 1cbe 8ba2 be3c c64a 8d3e
00000280: c43d ddbc 7966 cdbe a4c7 563e d638 80be
00000290: 9cef ddbe 7d0a 76be 3d6c 683e 8bbd 87be
000002a0: a309 c93b 4cee 2ebe e91c 9c3e c895 643e
000002b0: 25aa a1be cbdc 91be bd3f 783d e388 1cbe
000002c0: 82ff a2be e1e1 32be 3107 28bf 1607 f9be
000002d0: 1063 60bf 6056 033e 1b4f b8bc aeb7 83be
000002e0: 8143 74be dd39 513f 78a4 83be 1a6f 6abf
000002f0: 5848 43bf 557a 0e3e 013f f8be 9012 bebe
00000300: 6f73 96be d529 86be 3a94 cd3c be8b c93d
00000310: cff3 9d3e 513a debe 126e 0f3e 335f 95be
00000320: 952b d5be 4fe4 57be 9296 df3e f566 82be
00000330: 0d61 80bd e232 b2bc d310 ba3d be31 0e3e
00000340: f116 9bbe 187e dfbd 176c 05be e453 66bd
00000350: 6421 d63d b9fe 973e aa78 933d 7aec 833d
00000360: 6f7f b13d 6154 d1bd 7a39 0a3e 2097 89be
00000370: 3b9c 0f3f 685b e53e 92a3 02bf 8d5f 63be
00000380: 634a 32be 6e5f 3d3d 3a96 58be 291f c6bd
00000390: da74 233f cf9b bcbe 93c3 0dbf d043 1d3e
000003a0: 0438 06be d0f9 d23d 427f b23d 3f0e 1d3f
000003b0: 84b3 06bf fd88 cd3e 9c36 083f 11e6 0cbf
000003c0: 501b a13e 2fc0 b03e 67ea 23be 8fa6 2e3f
000003d0: 0002 80bd fd29 bdbe 3adf 23be 196e 973d
000003e0: eda6 d13d c9af f13d 517e 9bbe 86ae b4be
000003f0: 4c1d d3be 2e85 043c b43c 123d a88b ddbd
-0.82304597 -0.20648159 -0.022352707 -0.2021756 0.23537815 0.07107378 -0.78379107 -0.2741084
-0.4678769 -0.47272193 0.07094033 -0.28459427 -0.13465041 -0.29168102 0.2532738 -0.205299
-0.24336961 0.07803502 -0.067677684 0.13902952 0.09684354 0.41388634 0.36697772 0.79202634
0.08491702 -0.39202583 -0.41029656 -0.63609964 -0.039555132 -0.27357316 0.085326165 -0.3313195
-0.23123772 0.060200743 -0.21840702 0.3572593 -0.2921913 0.00045752575 -0.52231234 0.23811783
-0.07267778 0.00052569166 0.036734257 0.048068736 -0.08138665 -0.036414664 0.13234904 -0.3255558
-0.53332365 -0.27849397 0.2851084 -0.045613058 0.62258697 0.94988537 -0.3647869 -0.25570694
0.30492717 0.20773233 0.68672675 0.05554543 -0.37152398 -0.1316576 0.06361508 -0.16395053
-0.4563677 -0.28277722 0.57001424 0.30767542 -0.075565055 -0.32899994 -0.101548955 -0.4220798
-0.16754517 0.27574652 0.5693707 0.13100053 0.17978974 0.22468512 -1.0532993 -0.48711005
-0.110747434 -0.7116183 0.014973755 -0.29775295 -0.15734923 0.26923627 0.3276314 0.0255906
0.11565681 -0.057740927 -0.14277749 0.11624438 -0.056091648 0.22850008 0.07323841 -0.07120756
-0.07320301 -0.23403305 0.04353169 0.1578267 -0.15423453 -0.21191312 -0.107102305 0.26440996
0.059276056 -0.3543921 -0.52565783 -0.020111788 -0.44028968 -0.11952206 -0.058270246 0.096245565
0.3009118 0.40867582 -0.1299604 -0.08929177 0.55405354 -0.7120159 0.38496128 0.074424006
-0.6368097 0.57423925 -0.03492311 -1.3457372 -0.5566204 0.17433494 -0.21789898 0.32137325
0.2310903 -0.5520069 0.2891457 0.9527863 -0.14448951 -0.20014738 0.31926203 -0.40738007
-0.36249354 -0.6673622 -0.46344796 0.3614318 -0.033841647 -0.6503751 0.35294884 0.3329829
-0.76126844 0.5370843 0.23581085 -1.217451 0.52432346 0.32455334 -0.28799915 0.010685205
-0.18707097 -0.1482555 -0.018642675 -0.4638651 0.2748622 -0.15240544 0.023270866 0.2759611
-0.027006991 -0.40117243 0.20974594 -0.25043362 -0.4334687 -0.24027438 0.2269754 -0.26511797
0.006135182 -0.1708309 0.30490807 0.22322762 -0.31575122 -0.28488764 0.06060766 -0.15286593
-0.31835562 -0.17468978 -0.65635973 -0.4863822 -0.8765116 0.12825918 -0.022498658 -0.25726074
-0.23853876 0.8172892 -0.25711417 -0.9157578 -0.7628226 0.13913853 -0.48485568 -0.37123537
-0.29384944 -0.2620379 0.025095094 0.09841107 0.30850074 -0.43403867 0.14006832 -0.29174194
-0.41634813 -0.21083187 0.43669564 -0.25469175 -0.06268511 -0.021752778 0.0908524 0.13886163
-0.3029094 -0.10912722 -0.13029514 -0.056232348 0.104555875 0.29686525 0.07200749 0.06441589
0.08666884 -0.10221172 0.13498488 -0.26873112 0.56097764 0.447963 -0.5103084 -0.22204418
-0.17411189 0.046233587 -0.21151057 -0.09673912 0.63850176 -0.36837623 -0.5537655 0.153579
-0.13107306 0.10301554 0.08715679 0.6134986 -0.5261767 0.40143576 0.5320833 -0.55038553
0.3146615 0.34521624 -0.16007386 0.682229 -0.062503815 -0.36946097 -0.16003123 0.07394046
0.10236917 0.118011065 -0.3036981 -0.352894 -0.4123329 0.008088393 0.035702422 -0.10817653

ConvBlock2.0.bias f4 [64]
00000000: ae6f 4a3d 6805 983c 3fb9 46bd 9a3b 323d
00000010: 4741 5b3d d35e da3c 6c02 41bd 998b 69bd
00000020: 9403 083c 189f bf3c 4aa0 9f3c 2755 573c
00000030: 20bb 463d 7965 3f3d 0e3a 61bd 0f3f 9bbc
00000040: 69f1 093d 0cc2 043d 11e0 e73c 11fe 463d
00000050: ed9b 7b3c f81e 93ba 7814 18bd 8337 8ebc
00000060: f772 3abc ad4a 1fbc cf1d 563d f700 8a3c
00000070: 786c 56bd 6dbd df3c e348 903c 45bc 00bb
00000080: 3e36 373c a92d aabc cc2c 2ebd c833 113d
00000090: 6c87 a6bc 0694 efbc fdef 2fbd ad1b 333d
000000a0: 316e 43bd 946d 803b 0f6a 493c 326f 883c
000000b0: 1cdf 61bd f95d 94bc ab68 04bd 5a83 69bc
000000c0: b628 723d babe 37bc 9cc8 58bc fa47 2e3c
000000d0: 3873 56bd 3acf 55bd 7c2d 54bd 4dca c5bc
000000e0: e6ab 013d 7522 753d 238a 09bd 2e04 633d
000000f0: df47 103d c7f6 42bd afd6 58bc d04b 123d
0.049422912 0.018557265 -0.04851651 0.04351387 0.05352905 0.026656544 -0.04712145 -0.057017896
0.008301634 0.023391291 0.019485611 0.0131428605 0.0485183 0.04672763 -0.054987006 -0.018950967
0.033677492 0.03241162 0.028305085 0.04858214 0.015357 -0.0011224439 -0.037128896 -0.017360454
-0.011379949 -0.009722394 0.05227452 0.016846163 -0.052349538 0.027312005 0.01761288 -0.0019643467
0.011182366 -0.020773726 -0.04252319 0.035449773 -0.020328246 -0.029245388 -0.04295348 0.043727566
-0.04771251 0.0039193127 0.012293353 0.016654585 -0.055144414 -0.018111216 -0.03232638 -0.014252508
0.059120856 -0.011214906 -0.013231423 0.010637278 -0.052355975 -0.05219958 -0.05180119 -0.024144316
0.031658076 0.059847314 -0.033579003 0.055423908 0.03522479 -0.047598626 -0.013234778 0.03571683

ConvBlock2.1.weight f4 [64]
00000000: 3b67 e03e 8386 823f eb27 1f3f b5f5 4a3f
00000010: ae27 ae3e 3a55 ab3e fd69 2c3f 720a 0c3f
00000020: c424 613f 5b96 063f a144 ac3e 52f6 0b3f
00000030: 5707 5d3f 639a 5c3f 71e0 ec3e 0e62 333f
00000040: 66a1 7b3f 8a08 703f d234 443f 1b0c 0f3f
00000050: 5aba 5a3f 05f2 a23e e2fa 583f 6c84 2d3f
00000060: c29e 293f 7f87 893f b408 ae3e aeab 173f
00000070: 7af8 153f 746e 303f d56f 433f 1bbd 1d3f
00000080: 3648 e23e 7774 203f 7f41 523f 4487 193f
00000090: 7b14 3d3f c7ae 5f3f e6c7 6b3f 13d3 833f
000000a0: c588 033f 7406 443f 46e6 543f 7808 4f3f
000000b0: 7c81 323f da40 e23e 68f1 643f ae1b 353f
000000c0: 6cff ed3e a674 a53e 594a 323f f474 973e
000000d0: 4360 953e 57b3 b03c 9869 673f e8c2 2c3f
000000e0: df30 973f 8279 d63e 6151 5a3f e42a 5a3f
000000f0: c42c 7b3f ece6 473f 9192 b83e a8c7 563e
0.4382876 1.01973 0.62170285 0.7928117 0.34014648 0.3346346 0.67349225 0.5470344
0.87946725 0.52573174 0.3364611 0.5467273 0.86339325 0.86173075 0.46264985 0.70071495
0.9829315 0.9376303 0.766431 0.55877846 0.854406 0.3182527 0.84757817 0.67780185
0.6625787 1.0744475 0.33991015 0.5924634 0.5858227 0.6891854 0.7634252 0.6161668
0.44195718 0.6267771 0.8213119 0.59972024 0.73859376 0.87376064 0.92101896 1.029879
0.5138057 0.76572347 0.8316387 0.808723 0.6972883 0.44190103 0.89430857 0.7074536
0.46483934 0.32315558 0.69644696 0.29581416 0.29175004 0.02156989 0.903955 0.67484903
1.1811789 0.41889578 0.85280424 0.85221696 0.9811518 0.78086734 0.3604932 0.209746

ConvBlock2.1.bias f4 [64]
00000000: c9cd 2d3c 2c22 e9bf 1a72 8cbf d141 a6bf
00000010: 5978 65bf 0554 04bf e638 79bf 4a6d 3bbf
00000020: 1c23 e6bf 6883 45bf 1a35 14bf 5081 2dbf
00000030: bf76 c9bf 3376 ccbf fe12 07bf 7e51 80bf
00000040: b6f8 febf 1f2c bebf 1448 87bf c800 2f3e
00000050: ab5b e2bf dbf7 e7be 9a5b d5bf 3ebc babf
00000060: 54b3 423e 13ce f7bf 6c12 6bbe 95c7 28bf
00000070: 90cb 5fbf 2f76 01bf 54c9 74bf d7ce 55bf
00000080: 3452 1bbf ce2a d2bf baf3 c5bf c2f8 5e3e
00000090: f2e2 68bf e8df e3bf 4882 c2bf b265 d8bf
000000a0: 3e77 8ebf 6c66 b7bf 4a0e 22bf 95d0 abbf
000000b0: b581 10be e14f 9b3e 15d0 e9bf db30 ccbf
000000c0: 2eaa 2abf 6261 04bf cc74 bfbf ac11 99be
000000d0: 55ac 8ebe e0e4 dcbd 920a d3bf 094d 96bf
000000e0: f4fe 09c0 e72c d9be e9ca 9abf c484 a5bf
000000f0: 2fdd e7bf b6c7 bebf 3cd5 20bf 8b7a 17be
0.010608145 -1.8213553 -1.0972321 -1.2988836 -0.8963676 -0.51690704 -0.97352445 -0.73213637
-1.7979465 -0.77153635 -0.57893527 -0.6777544 -1.5739363 -1.5973572 -0.52763355 -1.002487
-1.991965 -1.4857215 -1.0568871 0.17090142 -1.7684225 -0.45306286 -1.666858 -1.4588697
0.19013721 -1.9359764 -0.22956246 -0.6592954 -0.87419987 -0.5057096 -0.956197 -0.8351874
-0.60672307 -1.6419313 -1.5465004 0.21774581 -0.9097129 -1.7802706 -1.5196009 -1.6906035
-1.113014 -1.4328132 -0.63303053 -1.3423029 -0.1411198 0.3033438 -1.8266627 -1.595241
-0.66665924 -0.51711094 -1.4957519 -0.29896295 -0.27865854 -0.10785842 -1.6487601 -1.1742259
-2.156186 -0.4241707 -1.2093173 -1.2931142 -1.8114375 -1.4904697 -0.6282537 -0.1479284

ConvBlock2.1.running_mean f4 [64]
00000000: 48ac f7bf 5c30 82c0 b6cf e1bf 948d 72c0
00000010: c8ca d6bf bc14 98bf ecca 58c0 df1c b6bf
00000020: feef 6fc0 4b5d 3ac0 8ef5 f8bf 9b77 1dc0
00000030: 7484 7fc0 9f5b 4ec0 910b 29c0 159d c0bf
00000040: 3777 20c0 e455 ecbf 2f8a cabf 7edd 28c0
00000050: bbfb 81c0 989d debd 7292 2ac0 da99 02c0
00000060: 83a9 61c0 a95d 74c0 25cb e7bf 84d2 27c0
00000070: 332d 32be 21ee 65c0 7454 1ec0 1049 3540
00000080: b499 64c0 f7bb 1ec0 c5ef 57c0 fabc 37c0
00000090: 7c0e 28c0 da53 11c0 4023 40c0 819d 6bc0
000000a0: 4684 2abf 9a58 4fc0 5a92 1ec0 623b c6bf
000000b0: a32d d8bf 948e 3ac0 14dd 83c0 7c58 20c0
000000c0: 57f3 d9bf b164 d9bf c9a4 cebf 760f 59c0
000000d0: b50a 8abf a53a d7bf b776 83c0 d492 65c0
000000e0: 2eb7 4fc0 7909 d6bf 6343 82be f6e9 ddbe
000000f0: f78a 56c0 9c6d 86c0 4c26 bebf 99ff 83c0
-1.9349451 -4.0684032 -1.7641513 -3.7898912 -1.6780634 -1.1881328 -3.3873854 -1.4227561
-3.749023 -2.9119442 -1.9449937 -2.4604251 -3.9924593 -3.224342 -2.641331 -1.5047938
-2.5072763 -1.8463712 -1.582342 -2.6385188 -4.061979 -0.10869902 -2.6651883 -2.0406404
-3.5259712 -3.8182166 -1.810887 -2.6222239 -0.17400055 -3.5926592 -2.4739046 2.8325844
-3.5718813 -2.4802225 -3.3740094 -2.8709092 -2.625884 -2.270743 -3.0021515 -3.6814883
-0.66608083 -3.2397828 -2.4776826 -1.5486872 -1.6888927 -2.9149523 -4.120737 -2.5054007
-1.7027386 -1.6983854 -1.6144038 -3.3915687 -1.0784518 -1.6814772 -4.1082416 -3.5870867
-3.2455554 -1.6721641 -0.25442037 -0.4334256 -3.3522317 -4.20088 -1.4855437 -4.124951

ConvBlock2.1.running_var f4 [64]
00000000: ed41 9840 d9dd 9740 e220 4140 e68e 9240
00000010: a3e6 5c40 e0fa d240 17ca 9b40 ab12 8040
00000020: aa17 ac40 2028 a840 1d2a 8940 8bfa 5640
00000030: d8f5 8d40 da3e 8c40 094d b940 2e62 7140
00000040: a86c 8c40 b78b 9140 c96b d840 7b6f b540
00000050: dd6d 7f40 3634 9840 2965 9f40 38f8 6140
00000060: 9774 db40 07de a240 45a6 ae40 b69d aa40
00000070: d2bf 6040 b508 8740 d6cf a040 a7f5 ea40
00000080: 49bd bf40 bd66 4140 67c6 6140 1447 eb40
00000090: 7447 a740 c1c7 6040 12b7 8740 24a5 a640
000000a0: 6f88 4a40 9945 bd40 9be9 6040 7500 9840
000000b0: b9e3 ae40 99e7 8740 187f 9b40 7bbf 9040
000000c0: 0d67 4e40 0911 9e40 bd22 9140 898f 8140
000000d0: 24a4 7f40 6392 6b40 8f42 9240 d2a3 8940
000000e0: 9758 a040 82dd 9d40 de08 8640 8817 a440
000000f0: bf78 a840 5317 c940 33fb df40 b47d 9640
4.7580476 4.745831 3.017632 4.5799437 3.451577 6.5931244 4.868419 4.002279
5.3778887 5.254898 4.286391 3.359042 4.43626 4.3826723 5.7906537 3.7716174
4.3882637 4.548305 6.7631574 5.6698585 3.9910805 4.7563734 4.9810987 3.530775
6.857982 5.089603 5.4577966 5.331752 3.5117078 4.219813 5.0253706 7.342487
5.991856 3.0218956 3.5277345 7.3524265 5.2274723 3.512192 4.2410975 5.207659
3.1645772 5.914746 3.5142581 4.750056 5.465298 4.247021 4.8592644 4.523374
3.2250397 4.9395795 4.5354905 4.0487714 3.9943933 3.6808097 4.570625 4.3012476
5.010814 4.9332895 4.1885824 5.1278725 5.2647395 6.284097 6.999414 4.7028446

ConvBlock3.0.weight f4 [128, 64, 3, 3]
00000000: 9677 c63d 081c 0c3e a1e5 89be 71f1 3ebe
00000010: b78f 03bf 7dc6 ed3e 8c04 073f b6e3 803e
00000020: eb7f b93e 3c3b 2bbf 1518 253e 34da 11bf
00000030: 9e85 31bf bd34 0dbf 7f10 9fbe 92b6 bdbf
00000040: 9b20 59bf 24ed 5dbe 8f43 d1be c311 e43e
00000050: 791f 9dbe 8622 0abf 84ec 863e 0010 c3be
00000060: 500a 3abe fd37 a03f a620 ad3e 6b89 50bf
00000070: 66dc 7bbe 7a59 4abf 66cf 61bd 3c77 a4bc
00000080: 1fa9 a83e 2b88 e13e 3129 b4be 2981 9c3e
00000090: 122c 3bbf f789 01bf b749 c3be 74d6 66bf
000000a0: ff6d 64bf ca90 99be b5ff 5f3d b657 2c3e
000000b0: 8e7b e0bd 093e dd3b 54a0 04bf f5b5 72be
000000c0: e14b c93e 0cfb 9a3e ae93 27be 6a9e 9c3e
000000d0: bf7b 4cbe 5c4f 083f ae80 a0be 24ff be3d
000000e0: 8d48 6cbc 3da9 e03e 8ba5 0cbe 7694 5dbe
000000f0: c804 86be 20ad d6bd 954c 913d 5bdb a63d
00000100: bb53 62be 79e8 1b3d c5ea 69be 6ac4 62bd
00000110: 3a4d 053f 16e4 083e b10a fdbd 3d3f 92be
00000120: bb4c 153d bee2 033f 7627 a7be fb9d de3e
00000130: 89c9 0e3e 980a 21bf 4a4e 94be 283c 293e
00000140: 4c94 003f 532b 543e dc1e ee3d 92b2 ef3d
00000150: cfa2 0fbe 9d87 85bd f5d4 07be 2a25 fdbe
00000160: 1e3c 323e 921c 9f3d ff35 b53c 6b13 babe
00000170: 9924 5dbf 9a00 02bf 0dcf 25bf f063 c6bd
00000180: bd41 b0be a348 91be ff2b b2be 72d4 2cbf
00000190: 7f7b 1bbf fbd0 31bf 185c be3e d137 073f
000001a0: 65db e8be 1c60 333e 01b7 0b3e b1af ce3e
000001b0: a081 cbbc af26 693e 25e6 143d 55ac c3bd
000001c0: 5725 d43e f5c8 cbbd 7b89 b5be 99fa b33d
000001d0: 9640 173d aa3b 2bbd a108 acbe c993 52bf
000001e0: d20c ce3d 9a3d babe 9635 fabe b596 3cbf
000001f0: f976 63be fb66 3dbe 3118 e13e bfaf af3e
00000200: 05f3 1c3d 40e1 cebe 917a 6cbe e991 d0bc
00000210: a174 04bf cef1 a73d e119 01bf bd35 db3d
00000220: 8914 2c3e 2520 873e bf37 b2be 2e64 88bc
00000230: a572 88be eabe 24bf 926b 57bf e62c c7be
00000240: a232 3bbf f631 ff3d 4323 7dbe 587a 5d3e
00000250: a0d9 c2be 04fe 04bf e0c5 c63b 0b06 9abd
00000260: 4f64 71be c539 8d3d 20d3 0fbe 25e4 06bf
00000270: 733e f1be b442 acbe 07e5 4cbf 6d16 9abe
00000280: 2659 2dbf 8d01 5bbf 174c adbe 5720 303e
00000290: 3162 91be e4ee 1c3a 63ea 79be 5b58 35be
000002a0: b066 0f3c 54f3 15be 159b 1b3d e413 69be
000002b0: 0209 0dbd a6e1 bcbd c1f5 7c3d c09a be3d
000002c0: da87 6c3e 032a 133f 7531 703e 766b da3e
000002d0: a750 03bf 26bc 163f 5f48 713e ef94 49be
000002e0: 26da 8e3e d76f 74be cade 14bf 7cbf 903f
000002f0: 79ec 943e ecaa 4dbe aa1c 36bd 9e08 4bbf
00000300: 2301 193c 27d5 903e d6df a8be 34f4 d63e
00000310: 3f42 a1be 13c7 f5bd 2113 10bf f237 753c
00000320: 99b5 1bbe a698 ab3e 286b d03d 52fd ab3e
00000330: 140e 643d 08dd ebbe b425 a0be 4623 dd3e
00000340: acf2 81be 3fb1 0c3e 2e01 31be 06c5 05bf
00000350: 403f 25bf c286 09bf d825 08bf 6d67 81bf
00000360: b5e2 e93d 6dba 68be a338 6cbe adb4 e9bd
00000370: d5eb 52be 7497 db3d 14fe 8fbd c9f5 8f3e
00000380: 432f 983e 170a 02bf 54b2 87bf 8abc d3bf
00000390: 1589 f13e 23b8 7d3d 3bb6 f8be 2783 063f
000003a0: cb1e 40be 1471 1c3e 242c 123d 515c a33e
000003b0: fbf9 a9be d4c2 1e3e d285 5ebe 43ce 61be
000003c0: 32c6 73be 510b 9bbe 7b48 8cbd 8deb 31bf
000003d0: f00c d8be f65b cb3e 092c 10bf 8e8d dcbe
000003e0: 3333 17bf db0b 54be cebc 983e beb5 aabe
000003f0: 84b0 82bf ac00 23bf 42f5 dfbd 1441 053e
0.09690778 0.13682568 -0.26933005 -0.1864679 -0.51391166 0.46440497 0.52741313 0.2517373
0.36230406 -0.6688726 0.16122468 -0.56973577 -0.6934451 -0.551586 -0.31067273 -1.4821341
-0.84815377 -0.21672493 -0.40871856 0.445448 -0.30688074 -0.5395893 0.26352322 -0.38098145
-0.18167996 1.2517086 0.3381397 -0.81459683 -0.24595794 -0.7904278 -0.05512943 -0.020076387
0.3294153 0.440492 -0.35187677 0.3056729 -0.7311412 -0.5060114 -0.38142177 -0.9017098
-0.8923034 -0.29993278 0.05468722 0.16830334 -0.10961066 0.00675178 -0.5180714 -0.23702224
0.39315704 0.3026966 -0.16364929 0.3058961 -0.1996908 0.5324609 -0.31348175 0.09326008
-0.014421594 0.4387912 -0.13735025 -0.21638665 -0.26175523 -0.1048224 0.07094685 0.081473075
-0.22102253 0.0380635 -0.22843464 -0.055363096 0.52070963 0.13368258 -0.12355555 -0.28563872
0.03645013 0.51517856 -0.32647294 0.43479905 0.13944067 -0.6290679 -0.2896598 0.16526854
0.50226283 0.20719652 0.1162698 0.117039815 -0.1402695 -0.06520007 -0.1326483 -0.49442416
0.17405745 0.07769121 0.022120474 -0.3634294 -0.8638397 -0.5078217 -0.6476906 -0.0968703
-0.34425154 -0.2837573 -0.3479919 -0.67511666 -0.60735315 -0.69459504 0.37179637 0.52819544
-0.45479885 0.17517132 0.13644029 0.40368417 -0.024842083 0.22768663 0.036352295 -0.09554354
0.41434738 -0.09950439 -0.35456452 0.08788032 0.03692683 -0.041804947 -0.33600333 -0.8225675
0.10061039 -0.36375123 -0.48869008 -0.7366746 -0.22213353 -0.18496315 0.4396377 0.3431377
0.0383177 -0.40406227 -0.2309363 -0.0254602 -0.5174046 0.082004175 -0.50430113 0.10703609
0.16804709 0.26391712 -0.34808156 -0.016649332 -0.26649967 -0.6435381 -0.84148514 -0.38901442
-0.73124135 0.12460701 -0.24720483 0.21628702 -0.3805666 -0.519501 0.006066069 -0.07520684
-0.23573421 0.06895784 -0.14045382 -0.5269187 -0.47117957 -0.3364464 -0.8003697 -0.30095235
-0.67714155 -0.8554924 -0.33847114 0.17199837 -0.28395227 0.0005986525 -0.24405818 -0.17709486
0.00875251 -0.14643604 0.037989695 -0.22761494 -0.03443242 -0.092227265 0.061757807 0.0930686
0.23098698 0.5748598 0.23456366 0.4266011 -0.5129494 0.5888084 0.23562764 -0.1968572
0.2790081 -0.23870789 -0.5815245 1.1308436 0.29086664 -0.20084733 -0.04446093 -0.79310024
0.00933865 0.28287622 -0.32983273 0.41983187 -0.31495854 -0.12000861 -0.5627919 0.014966952
-0.15205993 0.335149 0.101766884 0.33591706 0.05567749 -0.4606707 -0.31278765 0.43190974
-0.25380456 0.13739489 -0.17285606 -0.5225376 -0.64549637 -0.5372125 -0.53182745 -1.0109688
0.11420194 -0.22727366 -0.2306848 -0.11411414 -0.20597775 0.10722247 -0.070308834 0.28117207
0.29723558 -0.50796646 -1.0601296 -1.6541913 0.47174898 0.061943185 -0.4857653 0.5254387
-0.18761747 0.15277511 0.035686627 0.3190637 -0.33198532 0.15504009 -0.21730736 -0.22051339
-0.23806074 -0.3028207 -0.06849762 -0.69500047 -0.4219737 0.39718598 -0.5631719 -0.43076748
-0.590625 -0.20707648 0.29831547 -0.33341783 -1.0210118 -0.636729 -0.10935451 0.13013107

ConvBlock3.0.bias f4 [128]
00000000: 7e37 bc3c 8d93 60bb ac82 8b3b 1813 fb3c
00000010: 8fe6 26bd 7be3 9f3c 9ab7 adbb 8c31 cb3b
00000020: 7fd6 02bd 9084 cd3c 2fe3 bfbc cd90 dd3c
00000030: cae3 f53c 2779 253d 465a ea3b 0c7c 953c
00000040: 8e19 12bc 8be6 e33b b432 c03c fab2 85bc
00000050: aada 12bd 0097 273d 4637 26bd d913 65bc
00000060: 3a7f 54bc c63d 0b3d c651 1dbc f8b2 5f3c
00000070: 0110 e7bc a565 eabc 2ee5 01bd 3fdc 79b9
00000080: 9585 9bbc 079f 1ebd b409 243d 84c2 60b9
00000090: 83f5 b0bc eded 073c 2258 393c f157 0fbd
000000a0: ce2f a7bc 3d4c 5abb 20ca dbbc 72eb e2bb
000000b0: 07c2 52bc 725d d73c 79c7 813b 0a78 973c
000000c0: 56f1 84bc 4afc 063b cb58 9b3b 6be2 c7bb
000000d0: f7d0 0dbd 77c7 1a3d e755 a0bc 89f0 033d
000000e0: 33c4 02bc 9528 de3c 9a77 063d a0cb 223d
000000f0: 216e 16bd e629 933b d015 c5bc de6f af3c
00000100: f635 ffbc 9081 c03c ccfe 8d3b 90d9 83bb
00000110: c37a d4bc 120c c53c 5569 62ba 0683 69bc
00000120: 467b 92bc 41b5 b1bc 9fdf 133d 6055 c8bc
00000130: f51b cf3c 16a4 8dbb 7b7f 67bb 410e 7c3c
00000140: 92f3 9d3c 1ec8 3c3c 6370 a7bc 0ad5 e13c
00000150: 645a 5c3c 7366 863c 662e 563b 950c 05bd
00000160: 8f48 26bd 9785 ff3c 49eb 6abb f584 003d
00000170: 82e2 043d b75a 0d3b aed6 06bd dcd5 0fbd
00000180: 5d4a 2dbc 1079 bd3c 2fac adbc 209f 2abd
00000190: 56a8 d5bc 4380 8abc f471 603b e2a8 06bd
000001a0: 8a66 1dbd 65ee cb3b ea14 04bd 9926 11bd
000001b0: 42fb 10bd f1c8 273d 860b e8bb 3dfd 0c3d
000001c0: e819 123c 826b 743c 306a 3c3c d1a1 213d
000001d0: a505 acbc abb1 783c 5780 e3bb a366 df3b
000001e0: da5d fabc 2a65 09bc f8e0 9fbc b3ce 0bbd
000001f0: 2224 0d3b 3e72 043d 72fe 723b d0ff 0bbd
0.02297568 -0.0034267635 0.0042575207 0.030648753 -0.04074722 0.01951765 -0.005301428 0.006200975
-0.03194284 0.025087625 -0.02342376 0.027046585 0.030015845 0.040398743 0.0071518747 0.018247627
-0.0089172255 0.006954973 0.023461677 -0.016320694 -0.035853066 0.04091549 -0.040580057 -0.013981783
-0.012969786 0.03399446 -0.009602016 0.013653509 -0.028205873 -0.028612921 -0.031712703 -0.00023828539
-0.018984595 -0.03872588 0.040048316 -0.00021434767 -0.021601444 0.008296472 0.011312516 -0.034995977
-0.020408537 -0.0033309602 -0.02682978 -0.00692504 -0.012863643 0.026289675 0.0039605466 0.018489856
-0.01622836 0.0020597153 0.0047408096 -0.006099989 -0.034623113 0.03778788 -0.019572211 0.032211814
-0.007981348 0.02711896 0.032828905 0.039744973 -0.03672612 0.0044910787 -0.024058253 0.021415647
-0.03115366 0.02349928 0.0043333527 -0.004023738 -0.025937444 0.024053607 -0.00086369115 -0.01425243
-0.017881047 -0.021692874 0.036101934 -0.024454772 0.025281886 -0.004322539 -0.0035323787 0.015384258
0.019281182 0.011522321 -0.020439332 0.027567405 0.013449285 0.016406273 0.0032681464 -0.032482702
-0.04059654 0.03119163 -0.0035845807 0.031376798 0.032442577 0.0021568963 -0.03291958 -0.03511606
-0.010576812 0.023129016 -0.021200268 -0.04165566 -0.026081245 -0.016906863 0.003424761 -0.032875903
-0.038427867 0.006223487 -0.032246508 -0.0354372 -0.035395868 0.040963117 -0.007081452 0.034421194
0.008917309 0.01491821 0.011499926 0.03946096 -0.020998785 0.015179078 -0.0069427895 0.006817655
-0.03056233 -0.008385936 -0.019516453 -0.03413267 0.002153643 0.032335512 0.003707793 -0.03417951

ConvBlock3.1.weight f4 [128]
00000000: cc55 a53f 6b86 673f 70c5 373f b597 703f
00000010: 56bf 4a3f d9b7 2e3f cf27 633f 03bb 973f
00000020: e3ee 2a3f 2ab5 6c3f 50a5 5f3f 2501 533f
00000030: 8729 823f 22ff 503f 214d 573f ad21 6a3f
00000040: b487 5d3f a1ef 7f3f 6896 9a3f f978 8a3f
00000050: b5ef 573f 39bd 8d3f bb39 eb3e c099 843f
00000060: 5482 063f 538a 443f 8491 013f b9e7 553f
00000070: 2c99 5d3f 5dca 6e3f d146 803f 0d08 ac3f
00000080: 33d6 8b3f 75de 033f 1fc0 6d3f 3a15 543f
00000090: 85b9 373f 4376 3e3f 775c 0a3f 260a 803f
000000a0: 7b70 503f 69cb 273f 2510 393f 92ab 593f
000000b0: 85a8 853e a87e 103f 07da 883f ef9c 823f
000000c0: 4319 0c3f 6971 663f ecd2 053f c4e5 253f
000000d0: 13a0 863f 40b8 563e af9d 163f 6db6 593f
000000e0: 6026 ea3e 61a8 7c3f 26b8 613f b4ea 303f
000000f0: 77ff 3f3f 5f23 883f 340f 6d3f 07a0 a03f
00000100: 05ba 5c3f e460 4b3f 3c27 363f 099f 463f
00000110: 709d 5d3f 04da 393f fefc 3d3f 8559 753f
00000120: b65e 8e3f 4f9b 523f 863d 683f 4918 2a3f
00000130: b93f 883f 0897 3d3f fb7e 863f aca8 733f
00000140: b53a 9c3f c4d9 6d3f 368c 893f b61e 913f
00000150: 9165 6a3f c413 083f 7938 3b3f 8a5d 833f
00000160: 76a9 563f f989 513f 52c4 613f db4f 823f
00000170: a8b3 6a3f 2b2e 923f 82a6 943f c1e0 763f
00000180: dbeb 4c3f 0277 893f e9e8 043f 778e 883f
00000190: f357 973f e7a7 373f 3ff4 783f 5296 593f
000001a0: ced4 533f f7fa 023f 8b27 3d3f dbf3 633f
000001b0: 37ae 743f 7fcd 5c3f 9591 9b3f 89ee 803f
000001c0: fbb3 7f3f 41eb 2b3f e2ed 2d3f db70 3e3f
000001d0: d502 903f 2824 003f 8572 7e3f 7409 7c3f
000001e0: 42ae 903f d9bb 713f 3255 463f 91ec 063f
000001f0: d4c5 a53f 6100 5b3f 6ac4 803f b978 1a3f
1.2916808 0.9043948 0.7178564 0.93981487 0.79198205 0.6824928 0.8873262 1.1853946
0.6677076 0.92463934 0.8736162 0.8242362 1.0168923 0.816393 0.84102064 0.91457635
0.8653519 0.9997502 1.207715 1.0818168 0.8435014 1.1073371 0.45942482 1.0359421
0.52542615 0.76773566 0.50612664 0.83556706 0.86561847 0.9327753 1.0021611 1.3439957
1.0924743 0.5151132 0.9287128 0.8284489 0.71767455 0.74399203 0.5404734 1.0003097
0.8142163 0.65544754 0.7229026 0.8502742 0.26105133 0.5644326 1.0691537 1.0204142
0.54726046 0.900168 0.52274966 0.6480372 1.0517601 0.20968723 0.58834356 0.85043985
0.45732403 0.98694426 0.88171613 0.6910813 0.74999183 1.0635794 0.92601323 1.2548836
0.86221343 0.7944472 0.71153617 0.7758642 0.86568356 0.7259829 0.7421416 0.9583972
1.1122653 0.8226823 0.9071888 0.66443306 1.0644447 0.7405858 1.0507501 0.9517925
1.2205416 0.9291041 1.0745914 1.1337497 0.9156123 0.5315516 0.73133045 1.0262921
0.83852327 0.81851155 0.88190186 1.018062 0.91680384 1.1420339 1.1613314 0.964367
0.80047387 1.0739443 0.5191789 1.0668477 1.1823715 0.71740574 0.9724769 0.84994996
0.8274659 0.5116419 0.7388846 0.8904397 0.9557833 0.8625106 1.2153803 1.0072795
0.99884003 0.67155844 0.67941105 0.74390954 1.1250864 0.5005517 0.9939349 0.98451924
1.1303179 0.9442726 0.7747375 0.5270472 1.2950997 0.85547453 1.0059941 0.6034046

ConvBlock3.1.bias f4 [128]
00000000: ae31 c3be 63a2 23bf a026 d8be 4d11 67be
00000010: b4f9 1abf c708 8bbf adfb 6fbf 3032 a7bf
00000020: 8faa b1bf 40f4 92bf 68e5 c6be 49e5 1abf
00000030: d087 3bbf 2be2 e5bf 7eff cebf 18ef d6be
00000040: 6d38 10bf d2bf 1bbf e3c9 78bf b823 53bf
00000050: 3f6e 26bf 08e7 01bf 2259 ffbe f217 36bf
00000060: 60a7 70be df85 07bf 8666 02bf cb94 9ebe
00000070: eb62 f0be 519b d1be 9e72 7dbf ecb0 b43e
00000080: d39e fcbf a3cd a53d c6e6 e7be 41a1 2cbf
00000090: bdfa 06bf 8317 8dbf c630 c9be 1679 0bbf
000000a0: e5bd e2bf 8f4e dabe 7d73 3fbe 4f3a 44bf
000000b0: 242c c9be 92ff acbf 80ab 44bf be83 25be
000000c0: 2d98 1c3e 8880 0f3e 953b cfbe ecb7 24bf
000000d0: bd21 7fbf b367 8abe ff9e bdbe 0c5c 5fbf
000000e0: 2815 acbe 773e 82be 47f8 63bf bcca 91be
000000f0: 3406 edbf dc3b 87be 015c 41be d716 2cbf
00000100: ab9b 87bf 9753 b43d d215 09be 0d8a 20bf
00000110: 95bc 2fbf 4076 dfbf 3ec3 90be d56e 26bf
00000120: f011 d3be 7d24 5ebe e56a 75bf 3233 5fbc
00000130: 9a3f 4bbf 3297 acbe bb83 edbe 0ca7 82bf
00000140: 91f0 0e3f 27ec d2be 9a72 8abe 3467 c0be
00000150: 5cdd 05bf bc8c a4bf 3ad4 8ebf e78c 33bf
00000160: 0d58 063f 5ae9 13bf f012 13bf e981 24bf
00000170: 5f24 56be 5d73 b0be c300 27be 6dbf 49bf
00000180: 9b35 98bf 891f 4bbf e47c f9be ca40 05bf
00000190: 1a80 d6be d3ac 50bf 2d6c 6bbf 8c2c a6be
000001a0: f62d b4be dd2b f2be e036 4abf 8712 71bf
000001b0: 0277 f1be b147 02bf 316b 26bf 5e89 b8be
000001c0: d31c adbe 849f 06bf 13cf 943e 747d 4fbf
000001d0: 2b48 13bf e99b 00bf 17eb 12bf 8558 17bf
000001e0: e453 a5be 409f 51bf 23bf a7be 2b79 84be
000001f0: 2bf5 49bf ad83 fbbe 4801 08bf 62fc e63e
-0.3812384 -0.6391966 -0.4221697 -0.22565193 -0.60537267 -1.0862054 -0.937434 -1.3062191
-1.3880175 -1.1480789 -0.38846898 -0.6050611 -0.7325411 -1.7959646 -1.617172 -0.4197929
-0.563361 -0.6083957 -0.97183055 -0.8247638 -0.6501197 -0.5074315 -0.4987269 -0.7113029
-0.23501348 -0.52938646 -0.5093769 -0.30972895 -0.46950468 -0.4093881 -0.99003017 0.3529123
-1.9735969 0.08095863 -0.45293254 -0.67433554 -0.52726346 -1.10228 -0.39295024 -0.5448164
-1.7714201 -0.4263806 -0.18696399 -0.7665147 -0.3929149 -1.3515494 -0.7682419 -0.16163537
0.15292425 0.14013875 -0.40475145 -0.6434314 -0.99660856 -0.2703224 -0.37035367 -0.8724983
-0.3360989 -0.25438282 -0.89050716 -0.28474987 -1.8517518 -0.26412857 -0.18882753 -0.6722235
-1.0594381 0.08805006 -0.1338723 -0.6271065 -0.6864713 -1.7457962 -0.28273958 -0.65012866
-0.41224623 -0.21693607 -0.95866233 -0.013623046 -0.79393923 -0.33709103 -0.46389565 -1.0207229
0.55835825 -0.41195795 -0.2704056 -0.37578738 -0.5229089 -1.2855449 -1.1158516 -0.70136875
0.52478105 -0.5777794 -0.5745077 -0.6426073 -0.20912312 -0.34463015 -0.16308884 -0.7880772
-1.1891359 -0.79344994 -0.48728096 -0.52051985 -0.4189461 -0.8151371 -0.9196194 -0.32455862
-0.35191315 -0.4729909 -0.7898998 -0.94168895 -0.47161108 -0.5089064 -0.6500731 -0.36042303
-0.33811054 -0.5258715 0.29064235 -0.810508 -0.57531995 -0.502379 -0.5738997 -0.59119445
-0.32290566 -0.8188362 -0.32763013 -0.25873694 -0.7888972 -0.49123898 -0.53126955 0.45114428

ConvBlock3.1.running_mean f4 [128]
00000000: 14b8 82c0 98d1 afc0 efb8 b4c0 bcbc b7c0
00000010: 6a7a 3bc1 328a 34c1 8229 dbc0 c574 0dc1
00000020: 1910 acc0 3170 6ac0 72fd f6c0 6979 5abf
00000030: 0ac2 afc0 024e 693d 3792 4540 9043 34c1
00000040: 6eea e3bf be63 9fc0 3e75 14c1 472c 5cc1
00000050: 933e 1ac1 8395 b1bf 5431 cabf 2906 5ac1
00000060: a582 78c0 304f afc0 ec74 f2bf 7702 31c1
00000070: 9911 c5c0 d52a 7fc0 9896 24c0 ad7b 45c0
00000080: 3510 b1bf 0cac e2c0 83ef 12c1 fb02 2ec1
00000090: b561 bfc0 0ab2 33c1 8a75 0b3e 036a bec0
000000a0: bfa2 5740 58bd 87c0 fc75 0cc0 4cae 08c1
000000b0: 30b9 21c0 88f4 2b3f bce0 cac0 8322 56c0
000000c0: 5cb3 01c1 223d 8bc0 52e3 3840 1111 c0c0
000000d0: 79d9 57c0 115c 0840 462f cac0 36d3 d8c0
000000e0: 6116 4c3f 1e3b 8ec0 04b8 abc0 7838 52c0
000000f0: 50f1 5340 5108 c6c0 a49e efc0 274a bfc0
00000100: f0a8 acc0 ac75 88c0 8689 e5c0 a02c 90bf
00000110: 7abf ebc0 31e2 9e40 8092 f4c0 9fe1 c2bf
00000120: 9fe5 b2c0 5f3e 26be e784 3fc1 d157 4bc0
00000130: facd 09c1 69d7 e2c0 b2a4 18c0 c386 10c1
00000140: 66bf 39c0 1ed4 0cc1 254b 9fc0 6420 04c1
00000150: 2e27 12c1 a371 9140 ac79 13c1 b5ec 3fc1
00000160: 5a37 a8c0 2673 22c1 d80c 16c1 dcb6 26c1
00000170: a84f 3bc0 9836 a4c0 35c8 d9c0 34da 25c1
00000180: 7d01 26c1 20c5 23c0 3b8d b9c0 4f79 b3c0
00000190: 5924 01c1 7b6b ebc0 41fb 0cc1 6768 d3c0
000001a0: 944d fac0 b22e f6c0 5953 dac0 4364 0bc1
000001b0: 49e1 f2c0 7789 1dc1 d2a8 edc0 9181 00c1
000001c0: 3abc adc0 48e6 e8c0 5fee f4c0 11d8 ccc0
000001d0: 5617 b2c0 ea85 9dbd 5f70 cfc0 4e18 1bc1
000001e0: a265 8ac0 d0a4 a2c0 ef3b fcc0 8802 66c1
000001f0: 8069 42c1 99a3 9abf 9cfe 97c0 f1bf 9ec0
-4.0849705 -5.494335 -5.647575 -5.741789 -11.717386 -11.283739 -6.848817 -8.841008
-5.376965 -3.6630976 -7.718438 -0.8534151 -5.4924364 0.05695916 3.0870492 -11.266495
-1.7805917 -4.9809256 -9.278624 -13.76081 -9.640277 -1.3873752 -1.5796304 -13.626504
-3.882974 -5.4784164 -1.8941932 -11.063102 -6.158398 -3.9869893 -2.5716915 -3.0856736
-1.3833071 -7.083502 -9.183475 -10.875728 -5.980677 -11.230967 0.13619056 -5.950441
3.3693082 -4.2418633 -2.1947012 -8.542553 -2.526928 0.6717 -6.3399334 -3.3458564
-8.106289 -4.3512125 2.8888745 -6.0020833 -3.3726485 2.1306193 -6.3182707 -6.7757826
0.7972165 -4.4447165 -5.366213 -3.2846966 3.3116035 -6.188515 -7.4881153 -5.977802
-5.3956223 -4.2643642 -7.1730375 -1.1263618 -7.3671236 4.9651113 -7.6428833 -1.5225104
-5.59053 -0.1623473 -11.969947 -3.177235 -8.612787 -7.088795 -2.3850522 -9.032901
-2.902307 -8.801786 -4.977923 -8.257908 -9.134565 4.5451217 -9.217205 -11.99529
-5.256757 -10.153112 -9.378136 -10.419643 -2.9267368 -5.1316643 -6.8056893 -10.365772
-10.375363 -2.5589066 -5.79849 -5.608558 -8.071374 -7.35687 -8.811341 -6.6064944
-7.82197 -7.6932 -6.8226743 -8.711978 -7.5900006 -9.846061 -7.426858 -8.031632
-5.429227 -7.2781105 -7.654098 -6.4013753 -5.5653486 -0.07691558 -6.482467 -9.693434
-4.3249063 -5.0826187 -7.882316 -14.375618 -12.150757 -1.2081176 -4.7498302 -4.9609303

ConvBlock3.1.running_var f4 [128]
00000000: 467d c242 c823 f042 43c2 3542 b529 5d42
00000010: 69e2 3743 3b20 1e42 0401 3442 f97e 1742
00000020: cf65 a442 a00a 3842 e971 ff41 7336 3042
00000030: 538b 5742 f9dd b142 9f5e 1e43 a733 cb42
00000040: 9dbe 8a42 a91d 6642 89de 4842 1b5b 6242
00000050: d2d0 3542 de2c 0042 cd29 1d42 caec 7342
00000060: 4f39 8242 22f2 5342 7c97 7c42 6974 9942
00000070: c85a 6842 619d 1a42 f23b 0642 08ee 5142
00000080: 4a63 5943 c0e5 6342 83ad bc42 1347 5842
00000090: 6438 3742 7115 0442 a1ca 5642 203e 5a42
000000a0: 9edd 8942 4151 e441 ca10 cb41 323f 0b42
000000b0: fcb9 8342 5531 bf42 d3b9 1042 72f0 0742
000000c0: f23b b042 dfb7 0242 f114 ef42 93e0 e641
000000d0: fdf5 2842 1d0b a542 690b ad41 ca84 0f42
000000e0: 4d58 0642 3786 0842 6bb9 ce41 8e93 1442
000000f0: 5750 9942 9e9b 0042 511d d142 fa22 2242
00000100: 86b8 0942 f4ae 0342 b32d 1942 3599 1a42
00000110: 62c6 1f42 d391 a242 56fe 1342 2ca3 ab41
00000120: 5882 8842 8456 0342 290b 4242 ce0a a842
00000130: 12d9 3b42 56f5 1942 f8db 8f42 b907 a841
00000140: d451 c741 dae9 9f42 d1e6 9542 fa26 2642
00000150: 1465 7542 635a cc42 1f6e 0f42 c60d 7042
00000160: c4a5 0342 e2a4 d141 3855 3f42 0ade 2b42
00000170: 5af6 0142 6a5a 5342 83b3 0543 3460 4d42
00000180: 4521 1442 2d6d 2542 334d 2b42 d56a c042
00000190: d6fd 0c42 9d0d 6e42 be28 0042 de37 1f42
000001a0: b907 0b42 f679 0542 a164 e141 215f 2c42
000001b0: 806f 5142 1f9d 3d42 b58b 4f42 2c51 c642
000001c0: e862 3442 c964 4742 9580 4a42 d8f1 e941
000001d0: dfaa 7c42 b4cc 3642 b83a 7642 dee9 6b42
000001e0: 3962 9942 f417 7342 d2bd 0e42 6fcd 1142
000001f0: 82cc 1f42 04ed b941 2392 0c42 693f 4142
97.244675 120.069885 45.43971 55.29073 183.88441 39.531475 45.00099 37.873997
82.198845 46.010376 31.93062 44.053173 53.88606 88.93354 158.36961 101.60088
69.37229 57.528965 50.21732 56.58897 45.453926 32.043816 39.29082 60.98124
65.11193 52.986458 63.147934 76.72736 58.088654 38.65369 33.55854 52.482452
217.38785 56.974365 94.33889 54.06941 45.80507 33.02094 53.69788 54.56067
68.932846 28.539675 25.383198 34.811714 65.86325 95.59635 36.18147 33.98481
88.11708 32.67956 119.5409 28.859655 42.240223 82.521706 21.630571 35.879677
33.58623 34.13107 25.840536 37.144096 76.65691 32.15197 104.55726 40.534157
34.4302 32.920853 38.29463 38.649616 39.943733 81.28481 36.998375 21.454674
68.25458 32.834488 48.5109 84.0211 46.961983 38.489586 71.92963 21.00377
24.914955 79.95674 74.95081 41.538063 61.34871 102.17654 35.85754 60.01345
32.91188 26.20551 47.83322 42.966835 32.490578 52.838295 133.70122 51.34395
37.03249 41.356617 42.82539 96.20866 35.247887 59.513294 32.039787 39.804558
34.75754 33.369102 28.174135 43.0929 52.358887 47.40344 51.886433 99.15854
45.09659 49.848423 50.62557 29.243088 63.166866 45.699905 61.557343 58.978386
76.69184 60.77339 35.68537 36.45062 39.949715 23.24073 35.14271 48.311924
